notebooks/simple_model_scripted.pt (torch, 3989 bytes, 2 tensors)

weight f4 [5, 10]
0	0x3e8ef5b3	0.2792183
1	0xbe11f78a	-0.14254585
2	0xbe8e4bf4	-0.27792323
3	0xbe9cc76e	-0.30620903
4	0xbada6900	-0.0016663373
5	0x3c4eff80	0.012634158
6	0x3e450566	0.1924034
7	0x3d7bc258	0.061464638
8	0x3e3d7b7a	0.18504134
9	0xbe8a2cfb	-0.26987442
10	0xbe07a171	-0.13245179
11	0xbdacd414	-0.08438888
12	0x3e02a1fa	0.12757102
13	0xbe91e270	-0.2849307
14	0xbe598695	-0.21242745
15	0x3e1bb1c0	0.15204525
16	0xbdc38190	-0.095461965
17	0x3e1e9330	0.15485835
18	0x3e6950e6	0.22784767
19	0x3e856a65	0.26057735
20	0x3e1a6e16	0.15081057
21	0xbe9f9949	-0.31171635
22	0x3e86fad5	0.26363245
23	0xbe63eb76	-0.2225779
24	0x3e54fe0a	0.20800033
25	0xbd84949c	-0.064736575
26	0xbd7477d8	-0.059684604
27	0xbe3f1821	-0.18661548
28	0xbd857b88	-0.06517702
29	0xbe3a32bd	-0.18183418
30	0xbe6603ce	-0.22462389
31	0x3e4d787e	0.20065495
32	0x3e856af1	0.26058152
33	0x3dcee350	0.1010195
34	0x3e8a8e7d	0.27061835
35	0x3e9689df	0.29402062
36	0x3e752486	0.23939714
37	0xbe801459	-0.25015524
38	0x3e70383a	0.23458949
39	0x3d77b088	0.060471088
40	0xbe25d0aa	-0.1619288
41	0xbdb676b6	-0.08909361
42	0x3df5f048	0.12008721
43	0x3e73db46	0.23814115
44	0x3ea07321	0.31337836
45	0x3c260b80	0.010134578
46	0x3e3323cc	0.17494124
47	0x3df150a8	0.11782962
48	0xbe8d2db5	-0.27573934
49	0x3dc8cd68	0.09804803

bias f4 [5]
0	0xbda089a6	-0.07838754
1	0xbe75188c	-0.23935145
2	0xbdd2d232	-0.10293998
3	0xbe430f6d	-0.19048853
4	0xbe564810	-0.20925927
